…
(torch_1.9_torchvision_10.0) -bash-4.2$ CUDA_VISIBLE_DEVICES="3" python AVS_train_M3_celeba_v7_extE.py 
Warning: selected training on trainval split, hence validation is going to be performed on test split!
Warning: selected training on trainval split, hence validation is going to be performed on test split!
Warning: selected training on trainval split, hence validation is going to be performed on test split!
Model M1:
 Loaded from: ./results/celeba/trained_on_trainval_split/train_M1/vgg8_narrow_k2/pretrained_False_normalization_None_loss_correct_imbalance_False_seed_7/model.pth
 customizable_VGG(
  (features): Sequential(
    (0): Conv2d(3, 32, kernel_size=(3, 3), stride=(1, 1), padding=(1, 1))
    (1): ReLU(inplace=True)
    (2): MaxPool2d(kernel_size=2, stride=2, padding=0, dilation=1, ceil_mode=False)
    (3): Conv2d(32, 64, kernel_size=(3, 3), stride=(1, 1), padding=(1, 1))
    (4): ReLU(inplace=True)
    (5): MaxPool2d(kernel_size=2, stride=2, padding=0, dilation=1, ceil_mode=False)
    (6): Conv2d(64, 128, kernel_size=(3, 3), stride=(1, 1), padding=(1, 1))
    (7): ReLU(inplace=True)
    (8): MaxPool2d(kernel_size=2, stride=2, padding=0, dilation=1, ceil_mode=False)
    (9): Conv2d(128, 256, kernel_size=(3, 3), stride=(1, 1), padding=(1, 1))
    (10): ReLU(inplace=True)
    (11): MaxPool2d(kernel_size=2, stride=2, padding=0, dilation=1, ceil_mode=False)
    (12): Conv2d(256, 256, kernel_size=(3, 3), stride=(1, 1), padding=(1, 1))
    (13): ReLU(inplace=True)
    (14): AdaptiveAvgPool2d(output_size=(2, 2))
  )
  (classifier): Sequential(
    (0): Linear(in_features=1024, out_features=512, bias=True)
    (1): ReLU(inplace=True)
    (2): Dropout(p=0.5, inplace=False)
    (3): Linear(in_features=512, out_features=256, bias=True)
    (4): ReLU(inplace=True)
    (5): Dropout(p=0.5, inplace=False)
    (6): Linear(in_features=256, out_features=40, bias=True)
  )
)
Model M2:
 Loaded from: ./results/celeba/trained_on_trainval_split/train_M2/model.pth
 context_network(
  (conv1): Conv2d(3, 16, kernel_size=(7, 7), stride=(2, 2))
  (bn1): EvoNormSample2d()
  (conv2): Conv2d(16, 32, kernel_size=(5, 5), stride=(1, 1))
  (bn2): EvoNormSample2d()
  (conv3): Conv2d(32, 64, kernel_size=(3, 3), stride=(1, 1))
  (bn3): EvoNormSample2d()
  (conv4): Conv2d(64, 64, kernel_size=(3, 3), stride=(1, 1))
  (bn4): EvoNormSample2d()
  (relu): ReLU(inplace=True)
  (avgpool): AvgPool2d(kernel_size=21, stride=1, padding=0)
  (linear): Linear(in_features=64, out_features=2, bias=True)
  (tanh): Tanh()
)
Model M3:

Initialized M3 layer (features.0.weight) from M1 layer (features.0.weight)
Initialized M3 layer (features.0.bias) from M1 layer (features.0.bias)
Initialized M3 layer (features.3.weight) from M1 layer (features.3.weight)
Initialized M3 layer (features.3.bias) from M1 layer (features.3.bias)
Initialized M3 layer (features.6.weight) from M1 layer (features.6.weight)
…
Initialized M3 layer (features.12.weight) from M1 layer (features.12.weight)
Initialized M3 layer (features.12.bias) from M1 layer (features.12.bias)
Initialized M3 layer (classifier.0.weight) from M1 layer (classifier.0.weight)
Initialized M3 layer (classifier.0.bias) from M1 layer (classifier.0.bias)
Initialized M3 layer (classifier.3.weight) from M1 layer (classifier.3.weight)
Initialized M3 layer (classifier.3.bias) from M1 layer (classifier.3.bias)
Initialized M3 layer (classifier.6.weight) from M1 layer (classifier.6.weight)
Initialized M3 layer (classifier.6.bias) from M1 layer (classifier.6.bias)
customizable_VGG(
  (features): Sequential(
    (0): Conv2d(3, 32, kernel_size=(3, 3), stride=(1, 1), padding=(1, 1))
    (1): ReLU(inplace=True)
    (2): MaxPool2d(kernel_size=2, stride=2, padding=0, dilation=1, ceil_mode=False)
    (3): Conv2d(32, 64, kernel_size=(3, 3), stride=(1, 1), padding=(1, 1))
    (4): ReLU(inplace=True)
    (5): MaxPool2d(kernel_size=2, stride=2, padding=0, dilation=1, ceil_mode=False)
    (6): Conv2d(64, 128, kernel_size=(3, 3), stride=(1, 1), padding=(1, 1))
    (7): ReLU(inplace=True)
    (8): MaxPool2d(kernel_size=2, stride=2, padding=0, dilation=1, ceil_mode=False)
    (9): Conv2d(128, 256, kernel_size=(3, 3), stride=(1, 1), padding=(1, 1))
    (10): ReLU(inplace=True)
    (11): MaxPool2d(kernel_size=2, stride=2, padding=0, dilation=1, ceil_mode=False)
    (12): Conv2d(256, 256, kernel_size=(3, 3), stride=(1, 1), padding=(1, 1))
    (13): ReLU(inplace=True)
    (14): AdaptiveAvgPool2d(output_size=(2, 2))
  )
  (classifier): Sequential(
    (0): Linear(in_features=1024, out_features=512, bias=True)
    (1): ReLU(inplace=True)
    (2): Dropout(p=0.5, inplace=False)
    (3): Linear(in_features=512, out_features=256, bias=True)
    (4): ReLU(inplace=True)
    (5): Dropout(p=0.5, inplace=False)
    (6): Linear(in_features=256, out_features=40, bias=True)
  )
  (RLfeat): Sequential(
    (0): Conv2d(3, 16, kernel_size=(3, 3), stride=(1, 1), padding=(1, 1))
    (1): ReLU(inplace=True)
    (2): MaxPool2d(kernel_size=2, stride=2, padding=0, dilation=1, ceil_mode=False)
    (3): Conv2d(16, 32, kernel_size=(3, 3), stride=(1, 1), padding=(1, 1))
    (4): ReLU(inplace=True)
    (5): MaxPool2d(kernel_size=2, stride=2, padding=0, dilation=1, ceil_mode=False)
    (6): Conv2d(32, 64, kernel_size=(3, 3), stride=(1, 1), padding=(1, 1))
    (7): ReLU(inplace=True)
    (8): MaxPool2d(kernel_size=2, stride=2, padding=0, dilation=1, ceil_mode=False)
    (9): Conv2d(64, 128, kernel_size=(3, 3), stride=(1, 1), padding=(1, 1))
    (10): ReLU(inplace=True)
    (11): MaxPool2d(kernel_size=2, stride=2, padding=0, dilation=1, ceil_mode=False)
    (12): Conv2d(128, 128, kernel_size=(3, 3), stride=(1, 1), padding=(1, 1))
    (13): ReLU(inplace=True)
    (14): AdaptiveAvgPool2d(output_size=(2, 2))
  )
  (fovea_control): Sequential(
    (0): Linear(in_features=512, out_features=512, bias=True)
    (1): ReLU(inplace=True)
    (2): Linear(in_features=512, out_features=256, bias=True)
    (3): ReLU(inplace=True)
    (4): Linear(in_features=256, out_features=5, bias=True)
  )
  (fovea_control_baseline): Sequential(
    (0): Linear(in_features=512, out_features=512, bias=True)
    (1): ReLU(inplace=True)
    (2): Linear(in_features=512, out_features=256, bias=True)
    (3): ReLU(inplace=True)
    (4): Linear(in_features=256, out_features=1, bias=True)
  )
)
Epoch: 1/100

/home/min/a/tibrayev/miniconda3/envs/torch_1.9_torchvision_10.0/lib/python3.8/site-packages/torch/nn/functional.py:718: UserWarning: Named tensors and all their associated APIs are an experimental feature and subject to change. Please do not use them for anything important until they are released as stable. (Triggered internally at  /opt/conda/conda-bld/pytorch_1623448278899/work/c10/core/TensorImpl.h:1156.)
…
